optimal_model_data/model_data.pth (torch, 7471 bytes, 8 tensors)

input.weight f4 [8, 78]
00000000: 1c6d 8c3e be9d 493e 094a 663d 70f8 26bd
00000010: fb53 633f 2f32 dfbc c76d 413e a58a fcbd
00000020: 48d2 bb3d 7e1b c0bb b8ce b23e 6248 a53d
00000030: aa15 d83e ce63 14bf 5cd5 793e 732a b53e
00000040: 33e4 413e 761b 373e 652f 7e3e 98ed 8e3e
00000050: 222f a93e f346 47bf a61c 3f3e 7bf9 993e
00000060: 367a db3e 3413 82be eccc ff3e ac2e 143e
00000070: e008 60bb 86a2 f33e 206b 57bf 0843 22be
00000080: be43 f33e c284 1f3f c3fd 6e3e 5562 cd3e
00000090: c1f8 1c3d 5b3d 96bd 2c69 12bf 21d2 863e
000000a0: cf81 01bd 7bf8 9c3e 385e 10bd 1f13 523e
000000b0: aded a13e 186c d3be 3e58 04be 7235 f2bd
000000c0: d192 083c 4962 313e e20a b4be 9d9d 523e
000000d0: 7247 d7be 9629 debd 8268 44be 9590 163d
000000e0: 7777 a83e cefd 0a3d fbcc d03d e4de a73e
000000f0: cd15 bbbe f163 cebc e6c0 8dbf 078f 7e3e
00000100: 832b 743e 6469 c63e 26c5 dcbe 9c46 533e
00000110: 6439 30bf 8131 77be 9e10 423f b7de 1bbe
00000120: 749b aa3d 639c 843d e3f4 903d 443a 8e3e
00000130: 40df 39be 8519 9bbb 9b88 363f c8d6 a13d
00000140: 3bd0 a43e d6b5 a03e 5161 743f e5ad 2dbf
00000150: bb94 0b3e a0a2 083f 68a0 cfbd f907 543e
00000160: a39f 6d3e d51d 953e c45b 2b3d 4d7a 8d3e
00000170: dd06 c93e 5038 23be d743 f33d b7a3 003f
00000180: a4a7 173f 6831 1e3e 5f49 823d 495e 663d
00000190: 4291 183e fbde 763e 87ae 8c3d 63b9 0c3d
000001a0: f9d1 153e 79c4 3f3e 648d 00be e40e 4e3e
000001b0: 2fed 9c3e d9ad d53e 3bc2 0d3e 2cc0 cb3d
000001c0: 9afb 16bf 01a8 373d 0df7 cf3e de21 b03e
000001d0: bfc5 9d3e 5e3a 9e3d 44dc 1d3e 423c bc3e
000001e0: 8568 933e 672b e73d 8e30 af3e ff9f 24bf
000001f0: 9978 61bd 3b99 ad3e ddb1 c73e cdd4 f73e
00000200: e1a9 ec3e 3ba8 993e fe9d 5dbe 69b4 bc3d
00000210: 5747 c13e 1af3 1d3f b8a2 85be de21 76bd
00000220: 3349 06bf 8044 e33e 28ec a83f 2d66 453f
00000230: 85f2 013f 0e21 a23e 86ab 763e bc85 003e
00000240: 4f54 773e 922b fd3e 47ad 68be 5d87 763e
00000250: 874a 84bf de38 4c3e 88a3 10be a7a2 433f
00000260: 6f88 e63e 2fae 5c3f 4bcf 103f 74be 613e
00000270: 7bc8 cf3e ac13 53bd 1e31 873e 6dcf 4e3e
00000280: 4328 5b3e 9785 08bf 6b53 df3c 92ae d63e
00000290: 86d9 d3be 1949 413e 5dca a13d ba5d b63e
000002a0: 8c72 13be d00f 6a3f 10bb 133f 56d8 75be
000002b0: 67a9 8abe 3284 733e 7c4e 0d3e 97a7 be3b
000002c0: 8d9e a23d d30b 113f 9710 01be efad 0fbe
000002d0: 1aed 9ebe b071 ae3e b277 3ebe 9281 4e3e
000002e0: af53 d3bd d954 61be 7683 563f 371a 9d3d
000002f0: 4c32 4abe 779c 46be 9345 c3be 31eb 43be
00000300: 0a5a b53e fd1a c33e adb0 e03e b23e 9ebe
00000310: 37b4 7f3e 315b c23e 59c6 da3e 421b c2bc
00000320: 8421 f13d 2910 e8be 728c f9bd 81a2 803e
00000330: 96bf ed3e 831c b23e 2df3 063f a79d 853d
00000340: 3346 d93e fecc 533e 9609 76bd fa92 283f
00000350: ffaf 0abf 8219 a6bd b278 9abe f5ea 943e
00000360: a38b 5c3f d023 4e3f 36dc 7e3f 4a49 0a3f
00000370: 9628 4b3d 1a25 15bd 2ea8 053f 3af7 5c3e
00000380: 6ebf 1b3f 16cd 6b3e 8944 5bbf d048 693e
00000390: e41b 4d3c 0ee7 063f 6c28 d63e da6a 443f
000003a0: 6252 ff3e c9b6 393e 8112 af3e 0797 e03c
000003b0: 63f5 853e c61a 933e 033f d53e 44de c7be
000003c0: 5ac6 12bd 3a69 0f3f 5702 92bd bed2 233e
000003d0: 42d3 613e 4de7 a43e ca55 78be 92d9 793f
000003e0: 40c1 043f e183 b1be f5ef 0fbe ce50 ee3e
000003f0: 18ed 813e 5640 6c3b fd98 5dbd 1132 813e
0.27426994 0.1968908 0.05622295 -0.040764272 0.8880002 -0.02724561 0.18889533 -0.12331132
0.09170967 -0.0058626523 0.3492334 0.080704466 0.42204028 -0.5796479 0.24397796 0.3538395
0.18934707 0.1788157 0.24822767 0.27915645 0.33043772 -0.77842635 0.18663272 0.3007315
0.42866677 -0.25405276 0.4996103 0.14470929 -0.0034184977 0.47584933 -0.84147835 -0.15845883
0.4751262 0.6231195 0.2333899 0.40114084 0.038323168 -0.073359214 -0.5719173 0.2633219
-0.031617936 0.30658326 -0.035246104 0.20515107 0.31626645 -0.41293406 -0.12924287 -0.118266
0.008335785 0.17322649 -0.35164553 0.20567937 -0.42046696 -0.10847776 -0.19180492 0.036758978
0.32903644 0.033933453 0.10195347 0.3278724 -0.3654007 -0.02519414 -1.1074493 0.24859248
0.23844723 0.38752282 -0.43119162 0.20632404 -0.6883757 -0.24139978 0.75806606 -0.15221678
0.083304316 0.06475141 0.070779584 0.27778828 -0.1815157 -0.004733267 0.71302193 0.079022944
0.32190117 0.3138873 0.95460993 -0.67843467 0.13630955 0.53373146 -0.10138017 0.20706166
0.23205428 0.29124323 0.04183556 0.2763237 0.3926305 -0.1593945 0.11878174 0.5024981
0.59240174 0.15448534 0.06361651 0.05624226 0.14899161 0.24108498 0.06869226 0.034356486
0.1463088 0.18727292 -0.12553936 0.20122868 0.30649707 0.41734198 0.13843624 0.09948763
-0.58977664 0.044837955 0.40618172 0.3440084 0.3081493 0.077259764 0.15416056 0.36764723
0.2879068 0.11287575 0.34216732 -0.64306635 -0.05504665 0.33905968 0.39002886 0.48404542
0.46223357 0.30011162 -0.216423 0.09214098 0.3774974 0.6169907 -0.26100707 -0.060090892
-0.52455443 0.443882 1.3197069 0.7710903 0.5076068 0.31665844 0.24088868 0.12551016
0.24153255 0.49447304 -0.2272235 0.24075074 -1.0335244 0.19943568 -0.14124882 0.7642006
0.45025966 0.86203283 0.56566304 0.22045308 0.40582642 -0.051532432 0.2640466 0.20196314
0.21402077 -0.5332884 0.027261456 0.41930062 -0.41376895 0.18875541 0.07899926 0.35618383
-0.14399165 0.9143038 0.5770731 -0.24008307 -0.2708237 0.23780897 0.1379947 0.005818318
0.079403974 0.5665867 -0.12603985 -0.14031194 -0.3104027 0.34071112 -0.18600348 0.20166615
-0.10318696 -0.22005023 0.83794343 0.07671016 -0.19745749 -0.19395624 -0.38139018 -0.19132687
0.35420257 0.38106528 0.43884793 -0.30907208 0.2497109 0.379602 0.42729452 -0.023694638
0.11773971 -0.4532483 -0.12184991 0.2512398 0.4643523 0.34787378 0.52714807 0.065242104
0.4243637 0.20683667 -0.060067736 0.6584927 -0.541748 -0.08110334 -0.30170208 0.29085508
0.8615057 0.80523396 0.99554765 0.5401808 0.049599253 -0.036412336 0.52209747 0.21578684
0.60838974 0.23027453 -0.8565145 0.22781682 0.012518857 0.5269631 0.41827714 0.7672554
0.4986754 0.18136133 0.34193805 0.027415765 0.26163778 0.28731364 0.41649637 -0.39036763
-0.035833694 0.5601994 -0.071293525 0.1599836 0.22053245 0.32207718 -0.24251476 0.9759761
0.51857376 -0.34670928 -0.1405638 0.46546024 0.253762 0.003604909 -0.05410098 0.2523351

input.bias f4 [8]
00000000: e464 643f 8f75 843f 790d 983e 90fc e93e
00000010: 130b 5f3f 8d89 a43f 7f6e 5b3f 3e66 d53e
0.89216447 1.0348376 0.2969778 0.45700502 0.8712627 1.2854477 0.8571548 0.41679567

h1.weight f4 [8, 8]
00000000: 0b89 3cbf 0b59 7a3f 54a5 a83f 97a5 8c3f
00000010: b2aa 48be 44e8 81bd e065 c1be 161c a63f
00000020: b4e2 1440 e119 3b3f 3f06 33be 4aeb e03d
00000030: 9720 35be 17cf 1640 eeb5 cd3f 0919 ca3f
00000040: faed 2dbf 94fb aa3f 4147 0440 e5df b73f
00000050: 68bc 8d3f dc1e 0fbf f9e5 2ebd 2ded e53c
00000060: fd4a d13f 9ca0 573f 779d 13be f86b 5b3e
00000070: 2085 0040 e3f5 0e3f d4df f63f faf9 c9bf
00000080: c0c0 6dbe 76ba 023f 3126 9b3f 58d6 803f
00000090: eb58 1abf f27f be3e 0f3a edbe b2fd 9f3f
000000a0: 9293 c93f 2cc6 313f 33a6 f7be e6dd 773e
000000b0: 6c2a 0fbf 3e7b 1240 a358 d93e 14fb e83f
000000c0: 8880 f23d 52e7 51be c0f9 88bd 6a61 4d3e
000000d0: c887 213d c9e9 20be 8061 6a3c 348a f63d
000000e0: 355f 14bf 6303 823f 8921 aa3f af32 913f
000000f0: d9f6 32bf c34e 403f b7f4 19bf 413b cb3f
-0.7364661 0.9779212 1.3175454 1.0988034 -0.19596365 -0.06343129 -0.37773037 1.2977321
2.3263369 0.73086363 -0.17482851 0.10982378 -0.17688213 2.3563898 1.6071146 1.578889
-0.6794125 1.3358026 2.066849 1.4365202 1.1073122 -0.5590646 -0.042699788 0.028067196
1.635101 0.84229445 -0.14415537 0.21427906 2.0081253 0.55843943 1.9287057 -1.5779412
-0.2321806 0.51065767 1.212103 1.0065413 -0.6029193 0.3720699 -0.46333358 1.2499297
1.574816 0.6944301 -0.48368987 0.24205741 -0.55924106 2.288772 0.42450437 1.8201623
0.11840922 -0.20498398 -0.06688261 0.20056692 0.03943613 -0.15714182 0.014305472 0.12038079
-0.57957774 1.0157284 1.3291484 1.1343592 -0.6990791 0.7512018 -0.6013903 1.5877458

h1.bias f4 [8]
00000000: a7f3 133f 06f1 343f ac1a 95be 3832 333f
00000010: 7603 b13c 4d94 be3e 13fb abbe f084 713e
0.5779366 0.7068027 -0.29121912 0.699985 0.021608096 0.3722252 -0.33589992 0.23585868

h2.weight f4 [8, 8]
00000000: b8af acbe cedf 49be 025e cc3d 868a 6e3e
00000010: ef7d 813d c677 97be 3921 a03e 79d0 393d
00000020: ed44 12bf 2bf3 f83f 375f b7bf 177a ad3f
00000030: 2598 d8be 4b0c c53f da84 acbe 7a42 8e3e
00000040: 3b30 9b3f b5cc d73e a685 843f f22c 6bbf
00000050: f573 b33f 55ad 4f3f 00a4 27be 8cee b83f
00000060: bbdb 9c3f d474 a6bd 2510 dc3f 6f90 853e
00000070: 5d09 303f b494 11bf 5275 81be cfa1 553f
00000080: 7055 82be f062 333e 8a23 413f b12f ca3f
00000090: 9a79 b8be 1340 f83c 3cca 9cbe c4a6 7ebe
000000a0: b33d ce3d fb4c 5d3d 04fc b13d 30b8 07be
000000b0: 53e8 12be a882 00bd b0a7 1fbd fa38 01be
000000c0: 814d 18be 6741 86be c486 aabe d867 4d3e
000000d0: fdb2 98be b224 e03d 285e cbbd 4ec4 98be
000000e0: 9e02 eabd 1d67 fcbd f344 8cbe 24ba 5f3e
000000f0: f78c 983e b9c8 86be c0a9 c93d 90bf fb3c
-0.33727813 -0.19714281 0.09978868 0.2329503 0.06322848 -0.29583567 0.31275347 0.04536483
-0.5713642 1.9449209 -1.4325932 1.3552884 -0.42303577 1.5394377 -0.33695108 0.27785093
1.2124094 0.42148367 1.0353286 -0.91865456 1.4019762 0.8112386 -0.16371155 1.4447799
1.2254556 -0.08127752 1.7192427 0.26086757 0.6876429 -0.5686753 -0.2528482 0.83450025
-0.2545581 0.1751821 0.75444853 1.5795804 -0.36030275 0.03030399 -0.30623043 -0.24868304
0.10070362 0.054028492 0.08690646 -0.13253856 -0.14346437 -0.031374604 -0.03897828 -0.12619391
-0.14873315 -0.26221773 -0.33305943 0.20059144 -0.29824057 0.10944499 -0.09930068 -0.2983727
-0.114262804 -0.12324355 -0.27396354 0.21848351 0.29795048 -0.26325014 0.0984683 0.030730993

h2.bias f4 [8]
00000000: 7a6e c8be 383c 843f ffb3 f5be 5370 873e
00000010: 85c8 c43d 1e6f a1bd b0e2 b6be b0dd 9bbe
-0.39146787 1.0330877 -0.4798889 0.26452884 0.096085586 -0.07882522 -0.35719824 -0.30442572

output.weight f4 [13, 8]
00000000: a687 2e3d 7dad 183f ea20 14bf f8d3 b4be
00000010: 0037 0ebe 08af 243e 734e df3c 0e22 473e
00000020: 574e 0a3e c52c 243f 0dff 14c0 2372 80bf
00000030: 5644 613f 4ca8 b6be fe75 86be fd44 93be
00000040: 5c7e 9a3d 9ab4 513e d1b9 ab3e 9fad babe
00000050: 55d6 afbf cc73 29be dcd2 83bd 10aa 8a3e
00000060: c990 523e 5497 56bf b8e2 48bf 4d0c 23bf
00000070: 779a 02bf 9634 303e 8087 85be fa84 78bd
00000080: b95c e53b d520 e8bd 3f22 533e c8df 923e
00000090: 3945 a0be 5d11 6b3d 53c4 9cbe 26ec 323e
000000a0: 7563 6ebe 55bc 80bf 9726 1f3d df95 143f
000000b0: 7ce6 f03e 9953 933c cb86 bfbd 843b 99be
000000c0: c088 b5be b2fa 3abf ebc2 083f 3286 b13e
000000d0: 44e8 d0bf 99e7 d53c e895 c93d 910f 973e
000000e0: 978c 2cbe 5b1d dabb b246 c9be b53e 693e
000000f0: 52a3 3c3f aa59 a73e 1ba7 13be 949c bebe
00000100: ae20 7f3e 6be1 58bf 1e2d 5cbf 34d5 b1be
00000110: f9e0 2abf 5eb2 c7bd 8360 273e e483 873e
00000120: f75d 8d3e de76 29bf fd30 14bf c0a0 dbbe
00000130: 1769 06bf 0ec7 82bc 34b9 33bd d81c a5be
00000140: 2d02 8cbc 9d8d 46bf 728f 22bf 7709 66be
00000150: 83b9 0cbf fa4e 9e3e 75d9 e23d 90b8 763e
00000160: 35d6 4dbd a381 0fbf 0f92 22bf 3456 a2be
00000170: 96cd 17bf ac21 8d3e 7de9 86be 5e0b e73d
00000180: eed8 893e 8fa2 5cbf a4c0 5fbf 3589 04bf
00000190: 066e 46bf 922f 9f3d a285 b33d 9247 63bc
0.042609833 0.5963972 -0.5786272 -0.3531797 -0.13888168 0.16082394 0.027259087 0.19446585
0.13506447 0.6413081 -2.328067 -1.0034832 0.879949 -0.35675275 -0.26261896 -0.2876357
0.075436324 0.2047905 0.33540204 -0.36460587 -1.3737284 -0.16548079 -0.064367026 0.27082872
0.20563044 -0.8382466 -0.78470945 -0.63690645 -0.51016945 0.1720756 -0.2607994 -0.06067369
0.006999579 -0.11334387 0.20618533 0.28686357 -0.31302813 0.057389606 -0.30618533 0.17472896
-0.23280127 -1.0057474 0.03885516 0.58041185 0.47050846 0.017984198 -0.093518816 -0.2992822
-0.35455894 -0.7303878 0.5342242 0.34672695 -1.6320882 0.02611141 0.098430455 0.29504064
-0.16850506 -0.0066563315 -0.3931175 0.22777827 0.7368671 0.32685596 -0.14419214 -0.37228835
0.2491481 -0.8471896 -0.86006343 -0.34732974 -0.6674953 -0.09750818 0.1634541 0.26467812
0.27610752 -0.66197 -0.5788725 -0.4289608 -0.52504104 -0.015964057 -0.043877795 -0.3224857
-0.017090881 -0.77559835 -0.6350013 -0.22464548 -0.5497057 0.3091963 0.11076633 0.24093843
-0.050253112 -0.56057185 -0.6350412 -0.31706393 -0.59298074 0.27564752 -0.26350012 0.11281465
0.26923317 -0.86185545 -0.8740332 -0.5177186 -0.7751163 0.07772745 0.08765723 -0.013872044

output.bias f4 [13]
00000000: 5b15 7a3f 9c1e 9fbd e97f 15be 139b 06bf
00000010: 3e82 8bbe 0c54 063e a9ef 06be bb56 febe
00000020: 99ec 25bf aee8 ddbc 3c73 c3bc 4cf4 8cbe
00000030: 2a99 b9be
0.97688836 -0.0776951 -0.14599575 -0.52580374 -0.27247804 0.13117999 -0.1317736 -0.49675545
-0.64814144 -0.02708849 -0.023858659 -0.27530134 -0.36249667
